Model: "CatDogModel"
_________________________________________________________________
Layer (type)                 Output Shape              Param #
=================================================================
input_1 (InputLayer)         [(None, 64, 64, 3)]       0
_________________________________________________________________
zero_padding2d (ZeroPadding2 (None, 68, 68, 3)         0
_________________________________________________________________
conv2D_0 (Conv2D)            (None, 64, 64, 32)        2432
_________________________________________________________________
activation (Activation)      (None, 64, 64, 32)        0
_________________________________________________________________
max_pool_0 (MaxPooling2D)    (None, 32, 32, 32)        0
_________________________________________________________________
conv2D_1 (Conv2D)            (None, 28, 28, 64)        51264
_________________________________________________________________
activation_1 (Activation)    (None, 28, 28, 64)        0
_________________________________________________________________
max_pool_1 (MaxPooling2D)    (None, 14, 14, 64)        0
_________________________________________________________________
conv2D_2 (Conv2D)            (None, 10, 10, 128)       204928
_________________________________________________________________
activation_2 (Activation)    (None, 10, 10, 128)       0
_________________________________________________________________
max_pool_2 (MaxPooling2D)    (None, 5, 5, 128)         0
_________________________________________________________________
flatten (Flatten)            (None, 3200)              0
_________________________________________________________________
fc_0 (Dense)                 (None, 256)               819456
_________________________________________________________________
dropout (Dropout)            (None, 256)               0
_________________________________________________________________
fc_1 (Dense)                 (None, 2)                 514
=================================================================
Total params: 1,078,594
Trainable params: 1,078,594
Non-trainable params: 0
_________________________________________________________________
Epoch 1/15
500/500 [==============================] - 64s 129ms/step - loss: 0.6552 - accuracy: 0.6039 - val_loss: 0.5775 - val_accuracy: 0.7017
Epoch 2/15
500/500 [==============================] - 64s 128ms/step - loss: 0.5555 - accuracy: 0.7159 - val_loss: 0.4911 - val_accuracy: 0.7615
…
