Model: "CatDogModel"
_________________________________________________________________
Layer (type)                 Output Shape              Param #
=================================================================
input_1 (InputLayer)         [(None, 64, 64, 3)]       0
_________________________________________________________________
zero_padding2d (ZeroPadding2 (None, 70, 70, 3)         0
_________________________________________________________________
conv2D_0 (Conv2D)            (None, 64, 64, 32)        4736
_________________________________________________________________
bn_0 (BatchNormalization)    (None, 64, 64, 32)        128
_________________________________________________________________
activation (Activation)      (None, 64, 64, 32)        0
_________________________________________________________________
max_pool_0 (MaxPooling2D)    (None, 32, 32, 32)        0
_________________________________________________________________
dropout (Dropout)            (None, 32, 32, 32)        0
_________________________________________________________________
conv2D_1 (Conv2D)            (None, 26, 26, 64)        100416
_________________________________________________________________
bn_1 (BatchNormalization)    (None, 26, 26, 64)        256
_________________________________________________________________
activation_1 (Activation)    (None, 26, 26, 64)        0
_________________________________________________________________
max_pool_1 (MaxPooling2D)    (None, 13, 13, 64)        0
_________________________________________________________________
dropout_1 (Dropout)          (None, 13, 13, 64)        0
_________________________________________________________________
flatten (Flatten)            (None, 10816)             0
_________________________________________________________________
fc (Dense)                   (None, 2)                 21634
=================================================================
Total params: 127,170
Trainable params: 126,978
Non-trainable params: 192
_________________________________________________________________
Epoch 1/10
19/19 [==============================] - 3s 164ms/step - loss: 2.2629 - accuracy: 0.4750
Epoch 2/10
19/19 [==============================] - 3s 165ms/step - loss: 0.7671 - accuracy: 0.5833
…
