Model: "CatDogModel"
_________________________________________________________________
Layer (type)                 Output Shape              Param #
=================================================================
input_1 (InputLayer)         [(None, 64, 64, 3)]       0
_________________________________________________________________
zero_padding2d (ZeroPadding2 (None, 68, 68, 3)         0
_________________________________________________________________
conv2D_0 (Conv2D)            (None, 64, 64, 32)        2432
_________________________________________________________________
bn_0 (BatchNormalization)    (None, 64, 64, 32)        128
_________________________________________________________________
activation (Activation)      (None, 64, 64, 32)        0
_________________________________________________________________
max_pool_0 (MaxPooling2D)    (None, 32, 32, 32)        0
_________________________________________________________________
dropout (Dropout)            (None, 32, 32, 32)        0
_________________________________________________________________
conv2D_1 (Conv2D)            (None, 28, 28, 32)        25632
_________________________________________________________________
bn_1 (BatchNormalization)    (None, 28, 28, 32)        128
_________________________________________________________________
activation_1 (Activation)    (None, 28, 28, 32)        0
_________________________________________________________________
max_pool_1 (MaxPooling2D)    (None, 14, 14, 32)        0
_________________________________________________________________
dropout_1 (Dropout)          (None, 14, 14, 32)        0
_________________________________________________________________
conv2D_2 (Conv2D)            (None, 10, 10, 64)        51264
_________________________________________________________________
bn_2 (BatchNormalization)    (None, 10, 10, 64)        256
_________________________________________________________________
activation_2 (Activation)    (None, 10, 10, 64)        0
_________________________________________________________________
max_pool_2 (MaxPooling2D)    (None, 5, 5, 64)          0
_________________________________________________________________
dropout_2 (Dropout)          (None, 5, 5, 64)          0
_________________________________________________________________
conv2D_3 (Conv2D)            (None, 1, 1, 64)          102464
_________________________________________________________________
bn_3 (BatchNormalization)    (None, 1, 1, 64)          256
_________________________________________________________________
activation_3 (Activation)    (None, 1, 1, 64)          0
_________________________________________________________________
flatten (Flatten)            (None, 64)                0
_________________________________________________________________
fc (Dense)                   (None, 2)                 130
=================================================================
Total params: 182,690
Trainable params: 182,306
Non-trainable params: 384
_________________________________________________________________
Epoch 1/20
19/19 [==============================] - 2s 128ms/step - loss: 0.7495 - accuracy: 0.5733
Epoch 2/20
19/19 [==============================] - 2s 126ms/step - loss: 0.6503 - accuracy: 0.6667
…
