Model: "CatDogModel_25"
_________________________________________________________________
Layer (type)                 Output Shape              Param #   
=================================================================
input_1 (InputLayer)         [(None, 128, 128, 3)]     0         
_________________________________________________________________
conv2d (Conv2D)              (None, 128, 128, 32)      896       
_________________________________________________________________
conv2d_1 (Conv2D)            (None, 128, 128, 32)      9248      
_________________________________________________________________
batch_normalization (BatchNo (None, 128, 128, 32)      128       
_________________________________________________________________
activation (Activation)      (None, 128, 128, 32)      0         
_________________________________________________________________
max_pooling2d (MaxPooling2D) (None, 64, 64, 32)        0         
_________________________________________________________________
dropout (Dropout)            (None, 64, 64, 32)        0         
_________________________________________________________________
conv2d_2 (Conv2D)            (None, 64, 64, 64)        18496     
_________________________________________________________________
conv2d_3 (Conv2D)            (None, 64, 64, 64)        36928     
_________________________________________________________________
batch_normalization_1 (Batch (None, 64, 64, 64)        256       
_________________________________________________________________
activation_1 (Activation)    (None, 64, 64, 64)        0         
_________________________________________________________________
max_pooling2d_1 (MaxPooling2 (None, 32, 32, 64)        0         
_________________________________________________________________
dropout_1 (Dropout)          (None, 32, 32, 64)        0         
_________________________________________________________________
conv2d_4 (Conv2D)            (None, 32, 32, 128)       73856     
_________________________________________________________________
conv2d_5 (Conv2D)            (None, 32, 32, 128)       147584    
_________________________________________________________________
batch_normalization_2 (Batch (None, 32, 32, 128)       512       
_________________________________________________________________
activation_2 (Activation)    (None, 32, 32, 128)       0         
_________________________________________________________________
max_pooling2d_2 (MaxPooling2 (None, 16, 16, 128)       0         
_________________________________________________________________
dropout_2 (Dropout)          (None, 16, 16, 128)       0         
_________________________________________________________________
conv2d_6 (Conv2D)            (None, 16, 16, 256)       295168    
_________________________________________________________________
conv2d_7 (Conv2D)            (None, 16, 16, 256)       590080    
_________________________________________________________________
batch_normalization_3 (Batch (None, 16, 16, 256)       1024      
_________________________________________________________________
activation_3 (Activation)    (None, 16, 16, 256)       0         
_________________________________________________________________
max_pooling2d_3 (MaxPooling2 (None, 8, 8, 256)         0         
_________________________________________________________________
dropout_3 (Dropout)          (None, 8, 8, 256)         0         
_________________________________________________________________
conv2d_8 (Conv2D)            (None, 8, 8, 512)         1180160   
_________________________________________________________________
conv2d_9 (Conv2D)            (None, 8, 8, 512)         2359808   
_________________________________________________________________
batch_normalization_4 (Batch (None, 8, 8, 512)         2048      
_________________________________________________________________
activation_4 (Activation)    (None, 8, 8, 512)         0         
_________________________________________________________________
max_pooling2d_4 (MaxPooling2 (None, 4, 4, 512)         0         
_________________________________________________________________
dropout_4 (Dropout)          (None, 4, 4, 512)         0         
_________________________________________________________________
conv2d_10 (Conv2D)           (None, 4, 4, 1024)        4719616   
_________________________________________________________________
conv2d_11 (Conv2D)           (None, 4, 4, 1024)        9438208   
_________________________________________________________________
batch_normalization_5 (Batch (None, 4, 4, 1024)        4096      
_________________________________________________________________
activation_5 (Activation)    (None, 4, 4, 1024)        0         
_________________________________________________________________
max_pooling2d_5 (MaxPooling2 (None, 2, 2, 1024)        0         
_________________________________________________________________
dropout_5 (Dropout)          (None, 2, 2, 1024)        0         
_________________________________________________________________
flatten (Flatten)            (None, 4096)              0         
_________________________________________________________________
dense (Dense)                (None, 512)               2097664   
_________________________________________________________________
dropout_6 (Dropout)          (None, 512)               0         
_________________________________________________________________
dense_1 (Dense)              (None, 256)               131328    
_________________________________________________________________
dropout_7 (Dropout)          (None, 256)               0         
_________________________________________________________________
dense_2 (Dense)              (None, 2)                 514       
=================================================================
Total params: 21,107,618
Trainable params: 21,103,586
Non-trainable params: 4,032
_________________________________________________________________

625/625 [==============================] - ETA: 0s - loss: 0.7750 - accuracy: 0.5463
Epoch 00001: val_loss improved from inf to 0.93703, saving model to model/model_25
2020-08-02 21:15:03.493762: W tensorflow/python/util/util.cc:329] Sets are not currently considered sequences, but this may change in the future, so consider avoiding using them.
…
