Model: "CatDogModel"
_________________________________________________________________
Layer (type)                 Output Shape              Param #
=================================================================
input_1 (InputLayer)         [(None, 64, 64, 3)]       0
_________________________________________________________________
conv2D_0 (Conv2D)            (None, 62, 62, 32)        896
_________________________________________________________________
bn_0 (BatchNormalization)    (None, 62, 62, 32)        128
_________________________________________________________________
activation (Activation)      (None, 62, 62, 32)        0
_________________________________________________________________
max_pool_0 (MaxPooling2D)    (None, 31, 31, 32)        0
_________________________________________________________________
dropout (Dropout)            (None, 31, 31, 32)        0
_________________________________________________________________
conv2D_1 (Conv2D)            (None, 29, 29, 64)        18496
_________________________________________________________________
bn_1 (BatchNormalization)    (None, 29, 29, 64)        256
_________________________________________________________________
activation_1 (Activation)    (None, 29, 29, 64)        0
_________________________________________________________________
max_pool_1 (MaxPooling2D)    (None, 14, 14, 64)        0
_________________________________________________________________
dropout_1 (Dropout)          (None, 14, 14, 64)        0
_________________________________________________________________
conv2D_2 (Conv2D)            (None, 12, 12, 128)       73856
_________________________________________________________________
bn_2 (BatchNormalization)    (None, 12, 12, 128)       512
_________________________________________________________________
activation_2 (Activation)    (None, 12, 12, 128)       0
_________________________________________________________________
max_pool_2 (MaxPooling2D)    (None, 6, 6, 128)         0
_________________________________________________________________
dropout_2 (Dropout)          (None, 6, 6, 128)         0
_________________________________________________________________
flatten (Flatten)            (None, 4608)              0
_________________________________________________________________
fc_0 (Dense)                 (None, 256)               1179904
_________________________________________________________________
dropout_3 (Dropout)          (None, 256)               0
_________________________________________________________________
fc_1 (Dense)                 (None, 2)                 514
=================================================================
Total params: 1,274,562
Trainable params: 1,274,114
Non-trainable params: 448
_________________________________________________________________
Epoch 1/20
625/625 [==============================] - 89s 143ms/step - loss: 0.6772 - accuracy: 0.6340 - val_loss: 1.0690 - val_accuracy: 0.5556
Epoch 2/20
625/625 [==============================] - 84s 135ms/step - loss: 0.5761 - accuracy: 0.7008 - val_loss: 0.5515 - val_accuracy: 0.7304
…
