Model: "CatDogModel" WITHOUT SAME PADDING
_________________________________________________________________
Layer (type)                 Output Shape              Param #
=================================================================
input_1 (InputLayer)         [(None, 64, 64, 3)]       0
_________________________________________________________________
conv2D_0 (Conv2D)            (None, 62, 62, 32)        896
_________________________________________________________________
bn_0 (BatchNormalization)    (None, 62, 62, 32)        128
_________________________________________________________________
activation (Activation)      (None, 62, 62, 32)        0
_________________________________________________________________
max_pool_0 (MaxPooling2D)    (None, 31, 31, 32)        0
_________________________________________________________________
dropout (Dropout)            (None, 31, 31, 32)        0
_________________________________________________________________
conv2D_1 (Conv2D)            (None, 29, 29, 64)        18496
_________________________________________________________________
bn_1 (BatchNormalization)    (None, 29, 29, 64)        256
_________________________________________________________________
activation_1 (Activation)    (None, 29, 29, 64)        0
_________________________________________________________________
max_pool_1 (MaxPooling2D)    (None, 14, 14, 64)        0
_________________________________________________________________
dropout_1 (Dropout)          (None, 14, 14, 64)        0
_________________________________________________________________
conv2D_2 (Conv2D)            (None, 12, 12, 128)       73856
_________________________________________________________________
bn_2 (BatchNormalization)    (None, 12, 12, 128)       512
_________________________________________________________________
activation_2 (Activation)    (None, 12, 12, 128)       0
_________________________________________________________________
max_pool_2 (MaxPooling2D)    (None, 6, 6, 128)         0
_________________________________________________________________
dropout_2 (Dropout)          (None, 6, 6, 128)         0
_________________________________________________________________
conv2D_3 (Conv2D)            (None, 4, 4, 256)         295168
_________________________________________________________________
bn_3 (BatchNormalization)    (None, 4, 4, 256)         1024
_________________________________________________________________
activation_3 (Activation)    (None, 4, 4, 256)         0
_________________________________________________________________
max_pool_3 (MaxPooling2D)    (None, 2, 2, 256)         0
_________________________________________________________________
dropout_3 (Dropout)          (None, 2, 2, 256)         0
_________________________________________________________________
flatten (Flatten)            (None, 1024)              0
_________________________________________________________________
fc_0 (Dense)                 (None, 256)               262400
_________________________________________________________________
dropout_4 (Dropout)          (None, 256)               0
_________________________________________________________________
fc_1 (Dense)                 (None, 256)               65792
_________________________________________________________________
dropout_5 (Dropout)          (None, 256)               0
_________________________________________________________________
fc_2 (Dense)                 (None, 2)                 514
=================================================================
Total params: 719,042
Trainable params: 718,082
Non-trainable params: 960
_________________________________________________________________
Epoch 1/20
625/625 [==============================] - 83s 133ms/step - loss: 0.7781 - accuracy: 0.5626 - val_loss: 0.7119 - val_accuracy: 0.5018
Epoch 2/20
625/625 [==============================] - 85s 137ms/step - loss: 0.6660 - accuracy: 0.5986 - val_loss: 0.7030 - val_accuracy: 0.5242
…
625/625 [==============================] - 83s 132ms/step - loss: 0.3762 - accuracy: 0.8294 - val_loss: 0.5729 - val_accuracy: 0.7162
Epoch 20/20
625/625 [==============================] - 82s 131ms/step - loss: 0.3710 - accuracy: 0.8335 - val_loss: 0.5013 - val_accuracy: 0.7562



Model: "CatDogModel" WITH SAME PADDING
_________________________________________________________________
Layer (type)                 Output Shape              Param #
=================================================================
input_1 (InputLayer)         [(None, 64, 64, 3)]       0
_________________________________________________________________
conv2D_0 (Conv2D)            (None, 64, 64, 32)        896
_________________________________________________________________
bn_0 (BatchNormalization)    (None, 64, 64, 32)        128
_________________________________________________________________
activation (Activation)      (None, 64, 64, 32)        0
_________________________________________________________________
max_pool_0 (MaxPooling2D)    (None, 32, 32, 32)        0
_________________________________________________________________
dropout (Dropout)            (None, 32, 32, 32)        0
_________________________________________________________________
conv2D_1 (Conv2D)            (None, 32, 32, 64)        18496
_________________________________________________________________
bn_1 (BatchNormalization)    (None, 32, 32, 64)        256
_________________________________________________________________
activation_1 (Activation)    (None, 32, 32, 64)        0
_________________________________________________________________
max_pool_1 (MaxPooling2D)    (None, 16, 16, 64)        0
_________________________________________________________________
dropout_1 (Dropout)          (None, 16, 16, 64)        0
_________________________________________________________________
conv2D_2 (Conv2D)            (None, 16, 16, 128)       73856
_________________________________________________________________
bn_2 (BatchNormalization)    (None, 16, 16, 128)       512
_________________________________________________________________
activation_2 (Activation)    (None, 16, 16, 128)       0
_________________________________________________________________
max_pool_2 (MaxPooling2D)    (None, 8, 8, 128)         0
_________________________________________________________________
dropout_2 (Dropout)          (None, 8, 8, 128)         0
_________________________________________________________________
conv2D_3 (Conv2D)            (None, 8, 8, 256)         295168
_________________________________________________________________
bn_3 (BatchNormalization)    (None, 8, 8, 256)         1024
_________________________________________________________________
activation_3 (Activation)    (None, 8, 8, 256)         0
_________________________________________________________________
max_pool_3 (MaxPooling2D)    (None, 4, 4, 256)         0
_________________________________________________________________
dropout_3 (Dropout)          (None, 4, 4, 256)         0
_________________________________________________________________
flatten (Flatten)            (None, 4096)              0
_________________________________________________________________
fc_0 (Dense)                 (None, 256)               1048832
_________________________________________________________________
dropout_4 (Dropout)          (None, 256)               0
_________________________________________________________________
fc_1 (Dense)                 (None, 256)               65792
_________________________________________________________________
dropout_5 (Dropout)          (None, 256)               0
_________________________________________________________________
fc_2 (Dense)                 (None, 2)                 514
=================================================================
Total params: 1,505,474
Trainable params: 1,504,514
Non-trainable params: 960
_________________________________________________________________
Epoch 1/20
625/625 [==============================] - 112s 179ms/step - loss: 0.7459 - accuracy: 0.5439 - val_loss: 0.6783 - val_accuracy: 0.5502
Epoch 2/20
625/625 [==============================] - 116s 186ms/step - loss: 0.6644 - accuracy: 0.5903 - val_loss: 0.6700 - val_accuracy: 0.5942
…
