Model: "CatDogModel_16"
_________________________________________________________________
Layer (type)                 Output Shape              Param #   
=================================================================
input_1 (InputLayer)         [(None, 64, 64, 3)]       0         
_________________________________________________________________
conv2d (Conv2D)              (None, 64, 64, 32)        896       
_________________________________________________________________
conv2d_1 (Conv2D)            (None, 64, 64, 32)        9248      
_________________________________________________________________
batch_normalization (BatchNo (None, 64, 64, 32)        128       
_________________________________________________________________
activation (Activation)      (None, 64, 64, 32)        0         
_________________________________________________________________
max_pooling2d (MaxPooling2D) (None, 32, 32, 32)        0         
_________________________________________________________________
dropout (Dropout)            (None, 32, 32, 32)        0         
_________________________________________________________________
conv2d_2 (Conv2D)            (None, 32, 32, 64)        18496     
_________________________________________________________________
conv2d_3 (Conv2D)            (None, 32, 32, 64)        36928     
_________________________________________________________________
batch_normalization_1 (Batch (None, 32, 32, 64)        256       
_________________________________________________________________
activation_1 (Activation)    (None, 32, 32, 64)        0         
_________________________________________________________________
max_pooling2d_1 (MaxPooling2 (None, 16, 16, 64)        0         
_________________________________________________________________
dropout_1 (Dropout)          (None, 16, 16, 64)        0         
_________________________________________________________________
conv2d_4 (Conv2D)            (None, 16, 16, 128)       73856     
_________________________________________________________________
conv2d_5 (Conv2D)            (None, 16, 16, 128)       147584    
_________________________________________________________________
batch_normalization_2 (Batch (None, 16, 16, 128)       512       
_________________________________________________________________
activation_2 (Activation)    (None, 16, 16, 128)       0         
_________________________________________________________________
max_pooling2d_2 (MaxPooling2 (None, 8, 8, 128)         0         
_________________________________________________________________
dropout_2 (Dropout)          (None, 8, 8, 128)         0         
_________________________________________________________________
conv2d_6 (Conv2D)            (None, 8, 8, 256)         295168    
_________________________________________________________________
conv2d_7 (Conv2D)            (None, 8, 8, 256)         590080    
_________________________________________________________________
batch_normalization_3 (Batch (None, 8, 8, 256)         1024      
_________________________________________________________________
activation_3 (Activation)    (None, 8, 8, 256)         0         
_________________________________________________________________
max_pooling2d_3 (MaxPooling2 (None, 4, 4, 256)         0         
_________________________________________________________________
dropout_3 (Dropout)          (None, 4, 4, 256)         0         
_________________________________________________________________
flatten (Flatten)            (None, 4096)              0         
_________________________________________________________________
dense (Dense)                (None, 256)               1048832   
_________________________________________________________________
dropout_4 (Dropout)          (None, 256)               0         
_________________________________________________________________
dense_1 (Dense)              (None, 256)               65792     
_________________________________________________________________
dropout_5 (Dropout)          (None, 256)               0         
_________________________________________________________________
dense_2 (Dense)              (None, 2)                 514       
=================================================================
Total params: 2,289,314
Trainable params: 2,288,354
Non-trainable params: 960
_________________________________________________________________

lr=.0001, batch_size=32, epochs=25

Epoch 1/25
2020-07-22 17:10:55.207863: I tensorflow/stream_executor/platform/default/dso_loader.cc:44] Successfully opened dynamic library cublas64_10.dll
…
