…
2020-07-15 11:59:47.067152: I tensorflow/compiler/xla/service/service.cc:168] XLA service 0x7fa05ce939e0 initialized for platform Host (this does not guarantee that XLA will be used). Devices:
2020-07-15 11:59:47.067166: I tensorflow/compiler/xla/service/service.cc:176]   StreamExecutor device (0): Host, Default Version
Model: "CatDogModel"
_________________________________________________________________
Layer (type)                 Output Shape              Param #
=================================================================
input_1 (InputLayer)         [(None, 64, 64, 3)]       0
_________________________________________________________________
zero_padding2d (ZeroPadding2 (None, 68, 68, 3)         0
_________________________________________________________________
conv2D_0 (Conv2D)            (None, 64, 64, 32)        2432
_________________________________________________________________
bn_0 (BatchNormalization)    (None, 64, 64, 32)        128
_________________________________________________________________
activation (Activation)      (None, 64, 64, 32)        0
_________________________________________________________________
max_pool_0 (MaxPooling2D)    (None, 32, 32, 32)        0
_________________________________________________________________
dropout (Dropout)            (None, 32, 32, 32)        0
_________________________________________________________________
conv2D_1 (Conv2D)            (None, 28, 28, 64)        51264
_________________________________________________________________
bn_1 (BatchNormalization)    (None, 28, 28, 64)        256
_________________________________________________________________
activation_1 (Activation)    (None, 28, 28, 64)        0
_________________________________________________________________
max_pool_1 (MaxPooling2D)    (None, 14, 14, 64)        0
_________________________________________________________________
dropout_1 (Dropout)          (None, 14, 14, 64)        0
_________________________________________________________________
conv2D_2 (Conv2D)            (None, 10, 10, 128)       204928
_________________________________________________________________
bn_2 (BatchNormalization)    (None, 10, 10, 128)       512
_________________________________________________________________
activation_2 (Activation)    (None, 10, 10, 128)       0
_________________________________________________________________
max_pool_2 (MaxPooling2D)    (None, 5, 5, 128)         0
_________________________________________________________________
dropout_2 (Dropout)          (None, 5, 5, 128)         0
_________________________________________________________________
flatten (Flatten)            (None, 3200)              0
_________________________________________________________________
fc_0 (Dense)                 (None, 256)               819456
_________________________________________________________________
dropout_3 (Dropout)          (None, 256)               0
_________________________________________________________________
fc_1 (Dense)                 (None, 2)                 514
=================================================================
Total params: 1,079,490
Trainable params: 1,079,042
Non-trainable params: 448
_________________________________________________________________
Epoch 1/15
625/625 [==============================] - 109s 174ms/step - loss: 0.6922 - accuracy: 0.6202 - val_loss: 0.6580 - val_accuracy: 0.5828
Epoch 2/15
625/625 [==============================] - 107s 171ms/step - loss: 0.5785 - accuracy: 0.6997 - val_loss: 0.6033 - val_accuracy: 0.6584
…
