Model: "CatDogModel"
_________________________________________________________________
Layer (type)                 Output Shape              Param #
=================================================================
input_1 (InputLayer)         [(None, 64, 64, 3)]       0
_________________________________________________________________
zero_padding2d (ZeroPadding2 (None, 68, 68, 3)         0
_________________________________________________________________
conv2D_0 (Conv2D)            (None, 64, 64, 32)        2432
_________________________________________________________________
bn_0 (BatchNormalization)    (None, 64, 64, 32)        128
_________________________________________________________________
activation (Activation)      (None, 64, 64, 32)        0
_________________________________________________________________
max_pool_0 (MaxPooling2D)    (None, 32, 32, 32)        0
_________________________________________________________________
conv2D_1 (Conv2D)            (None, 28, 28, 64)        51264
_________________________________________________________________
bn_1 (BatchNormalization)    (None, 28, 28, 64)        256
_________________________________________________________________
activation_1 (Activation)    (None, 28, 28, 64)        0
_________________________________________________________________
max_pool_1 (MaxPooling2D)    (None, 14, 14, 64)        0
_________________________________________________________________
conv2D_2 (Conv2D)            (None, 10, 10, 128)       204928
_________________________________________________________________
bn_2 (BatchNormalization)    (None, 10, 10, 128)       512
_________________________________________________________________
activation_2 (Activation)    (None, 10, 10, 128)       0
_________________________________________________________________
max_pool_2 (MaxPooling2D)    (None, 5, 5, 128)         0
_________________________________________________________________
flatten (Flatten)            (None, 3200)              0
_________________________________________________________________
fc (Dense)                   (None, 2)                 6402
=================================================================
Total params: 265,922
Trainable params: 265,474
Non-trainable params: 448
_________________________________________________________________
Epoch 1/10
469/469 [==============================] - 77s 165ms/step - loss: 0.6614 - accuracy: 0.6628
Epoch 2/10
469/469 [==============================] - 81s 172ms/step - loss: 0.5245 - accuracy: 0.7485
…
